output/policy.onnx (onnx, 237487 bytes, 12 tensors)

log_std f4 [17]
00000000: 909e 8cbd bf6b 93bd fd2c d4bc 7c50 9ebd
00000010: c988 04bd 7dda c8bd 2fa5 1fbe a9ab 91bd
00000020: e0df debd 6420 5bbd 1ee1 48be 0b0e 2cbd
00000030: b25b b0bd 2d18 d0bc 71a3 43bd eae6 a9bd
00000040: 548a bcbd
-0.06866181 -0.07198285 -0.025900358 -0.07730195 -0.03235701 -0.09807298 -0.15590356 -0.0711282
-0.108825445 -0.053497687 -0.19617125 -0.04200558 -0.086112395 -0.025402153 -0.04776329 -0.082959965
-0.092060715

mlp_extractor.policy_net.0.weight f4 [64, 376]
00000000: cbf7 c5bc 88ef 1dbe 7770 4e3d 1622 cdba
00000010: e177 953c 4290 d13d e155 0cbe 6d43 673c
00000020: 69e0 b93d 2bd6 2f3c 6e0a 14be 6b8a 653d
00000030: d520 78bb fde4 e5bd a1f3 04bc 2393 083e
00000040: 6831 963c 5e94 75bd b2df d43d 6920 143c
00000050: 0b2f 53bd 71de 38bd 8beb 6abd cb34 bcbc
00000060: 388d 383d b0b9 4f3d a619 d8bd c251 8c3b
00000070: 191e eebb 7181 1e3d d8ef e03c 30fd c1bd
00000080: 77e7 93bc c97d c3bd b15b bbbd f1b8 e73c
00000090: 718e 45be 9d78 9f3d 3143 1b3e 7949 42bb
000000a0: bbb9 973d af83 843d 6ed7 073e d581 bdbd
000000b0: bcde 053d 32ad b8bd 9051 03bd 58e0 e4ba
000000c0: b5b1 083c b55a 973c 283f 9d3d 867b 02be
000000d0: e805 c93d dbfe 113d 5612 0d3d 9d99 0bbd
000000e0: 8977 763c f57b 16bb 82da 5f3d 861b 68bd
000000f0: 607f 223d 29b0 2ebe 280c 503d 56e6 0bbd
00000100: 6db2 a8bc eec0 083e 2922 06be 34fa 263d
00000110: 978d 8bbd 4e61 74bc f0aa 17bd b083 893b
00000120: 0849 9fbd 0f0c c73a 0910 523d 0230 1abd
00000130: a78e 2ebd 1903 7b3d 3b2f 9a3a 9e81 203d
00000140: a1d1 0abc 3857 98bb a08e 32bd c2c3 27bd
00000150: ebff 4fbc f5bc 6ebc 1c69 1f3d bd4e 013d
00000160: 37c3 923d 5a6d c8bc eacd d7bd 1f2a 9a3d
00000170: 7f69 8bbc 18ad 663d 7c8d b8bc 1c6c 03bd
00000180: d4d1 083e 312f 23be 4629 6ebe 61da 7f3d
00000190: 46ab 1b3d dc19 91bc f17f 93bb 538d b1bd
000001a0: 5384 4abd 5c1e 523b 7d43 60bc 371b e33c
000001b0: 91c3 c4bd a5a5 e0bd d1c6 933c b862 20be
000001c0: c9ab 6a3c 00a8 603d fb76 fabc 17ed 0dbd
000001d0: 0753 03bd ddc0 9bbd 666c 6ebb ffaa f3bd
000001e0: ae5e 04bd eb54 8e3d cbcd 18bd aedd 8e3d
000001f0: 1a48 73bd c268 e73c 6563 56be 747c c9bc
00000200: 7938 07be ee9a 14be ba1e 99bd 27bd 26bd
00000210: a018 1fbb a178 c83d 0d13 1ebd dcb3 b83b
00000220: 2cad 933d dbb6 203e 0f09 5e38 869d 70bd
00000230: a6ad a7bd 1da3 33be ca89 a2bd dde3 eebc
00000240: 8ddf 0b3e ef8d 21bd 74c9 733d a2a3 143b
00000250: 5f58 39bc 52a3 54be 0521 5abc 8e6b cdbc
00000260: 8ed6 e0bd eb8f d3bc f849 f3bc bcc6 aa3d
00000270: 057d e9bc f194 aa3c bf26 95bb ad37 ccbc
00000280: 8abb 933d 04f0 60bd 6227 15bd d48c 953d
00000290: e4ff 863d 7f85 573b d37c e0bc f77e 25be
000002a0: 04b7 a1bd ab07 c93c bc22 dfbc 87e6 38bd
000002b0: 55dc 8d3d a2d4 79bd dac1 a23c 7f75 ac3d
000002c0: 138c 70bd b02f 6fbd ebf4 a1bc 9411 513d
000002d0: 4483 08be 8706 b03d 5ecd a8bd d261 733d
000002e0: 4089 24bd d740 1fbd b09d ef3c 1105 e63d
000002f0: 21f7 383d 2f61 32bd ffb0 4c3d 7f1e f1bb
00000300: 7618 8cbd 17e2 183c 5b5d 033d daaf 87bb
00000310: 067c 8e3d fdfd fd3c 3a8b c43d 7803 ceba
00000320: 1643 aa3c 56dc 263c 5936 37bd 3aab 7dbd
00000330: ebbe ee3c 306f ffbd 3286 123e de05 52bd
00000340: cb7c fc3d cc43 0d3e e227 843c 1911 d7bd
00000350: fbd0 4fbd af60 fabb bd32 a4bd 092a 2a3e
00000360: 4d1f 343d 6d27 3bbd de20 4d3d 2cad 303c
00000370: 1e7e 04be fdd7 193e b7c6 be3d 2a12 88bd
00000380: 3680 0abe baeb d93d 6929 b93c d965 a5bc
00000390: b547 de3d efa5 9dbd 88fa 53bd 8eb5 7f3c
000003a0: e17d da3d dfb3 42bc 42b0 52bd a538 10bd
000003b0: 0132 83bb 52a6 e73d 4179 8cbd 2b28 19bc
000003c0: 4f16 d2bd 9011 a53d d392 18bc 35c4 1d3d
000003d0: fd5d c13d ba9c fa3d 0483 debc 12ce 92bd
000003e0: c764 41bd 2d60 2fbc cce6 abbd 6bcb 2ebd
000003f0: 4f97 ef3c 494c 893d 464f 48bd 9eba 583d
-0.024166008 -0.15423405 0.050400224 -0.0015650417 0.01824564 0.10232593 -0.13704635 0.014115197
0.09076006 0.010732214 -0.14457104 0.05604021 -0.0037861366 -0.11225317 -0.008114726 0.13337378
0.018334106 -0.059955947 0.10394229 0.00904093 -0.051558536 -0.04513401 -0.057353538 -0.022974392
0.04505655 0.050714195 -0.10551767 0.004282207 -0.0072667715 0.038697664 0.027458116 -0.0947212
-0.018054707 -0.09545476 -0.09148348 0.02828643 -0.19292618 0.07786677 0.1516235 -0.0029645844
0.07408472 0.06470429 0.13265774 -0.09253279 0.03268312 -0.090174094 -0.032060206 -0.0017461879
0.00834315 0.01847587 0.07678062 -0.12742433 0.0981558 0.03564344 0.034441315 -0.034082044
0.015043148 -0.0022962068 0.054651745 -0.056666873 0.039672256 -0.17059387 0.050792843 -0.034155212
-0.020592893 0.13354847 -0.13098969 0.040765956 -0.068141155 -0.014915777 -0.037028253 0.0041966066
-0.077776015 0.0015186089 0.051284824 -0.03764344 -0.042616513 0.06128225 0.0011763343 0.039186113
-0.008472831 -0.004649069 -0.04359305 -0.040958174 -0.012695293 -0.014571418 0.0389186 0.03156923
0.071661405 -0.024466205 -0.10537322 0.07527565 -0.017018078 0.05631742 -0.022528403 -0.032085523
0.13361293 -0.15935971 -0.23257932 0.06246412 0.038005136 -0.017712526 -0.004501336 -0.086695336
-0.0494426 0.0032061553 -0.013687965 0.027722938 -0.09607614 -0.10969094 0.018039139 -0.15662658
0.014323183 0.054847717 -0.030574312 -0.034649935 -0.032061603 -0.07605145 -0.0036380528 -0.11897849
-0.032316856 0.069497906 -0.037305634 0.06975876 -0.059394933 0.028248195 -0.20936354 -0.024595477
-0.13205136 -0.14512226 -0.07476564 -0.040707733 -0.0024276152 0.09788633 -0.038592387 0.0056366753
0.07210764 0.15694754 5.293736e-05 -0.058743976 -0.08187418 -0.17542692 -0.079364374 -0.029161388
0.13659497 -0.039442 0.059518293 0.002268054 -0.011312573 -0.20765427 -0.0133135365 -0.0250757
-0.10978423 -0.025825461 -0.029698357 0.08338687 -0.028501997 0.020822974 -0.004551738 -0.024928892
0.072135046 -0.054916397 -0.03641451 0.073022515 0.06591776 0.0032885966 -0.02740327 -0.16161714
-0.078962356 0.02453979 -0.027238242 -0.045141723 0.069267906 -0.060993798 0.019867826 0.08420848
-0.058727335 -0.058395088 -0.019770106 0.051042154 -0.13331324 0.08594995 -0.08242296 0.05941946
-0.040169954 -0.038880195 0.029249996 0.11231435 0.045157555 -0.043549713 0.049973484 -0.0073583717
-0.06840603 0.009331248 0.032071453 -0.004140836 0.06957249 0.0310049 0.09596868 -0.0015717587
0.020783942 0.010184368 -0.044729564 -0.061930872 0.029143771 -0.12472379 0.14309004 -0.051275127
0.1232849 0.13795394 0.016132299 -0.10501308 -0.05073641 -0.00764092 -0.0801749 0.16617598
0.043975163 -0.045691896 0.050080173 0.010783475 -0.12938735 0.15023799 0.093152456 -0.066440895
-0.13525471 0.106406644 0.022602754 -0.020190166 0.10853521 -0.07697665 -0.051752597 0.015607251
0.10668541 -0.011883705 -0.051437624 -0.03521027 -0.0040037637 0.1131102 -0.06859065 -0.009347956
-0.10258161 0.080599904 -0.009312349 0.038517196 0.09441755 0.122369245 -0.027162082 -0.07168211
-0.04721525 -0.010704082 -0.083936304 -0.042674463 0.029246954 0.06704003 -0.048903726 0.052912347

mlp_extractor.policy_net.0.bias f4 [64]
00000000: 21d9 5dbc bc59 c3ba 9ac1 643b 64e5 4eb9
00000010: 6063 97b9 6ff4 003b 4b99 6ebb bb12 7fbb
00000020: fa4c 17bb 1b11 bab8 0879 a839 02cf 14bb
00000030: 85a7 08bb 9430 f13b aafd dbba db96 f8bb
00000040: a1a4 3b3b f26e a5ba ca5b fbbb 7e40 b3bb
00000050: a18e 3e3b b097 d8b9 8000 94b9 f3b0 14bb
00000060: 8b7a 01bc 2291 a73b a8fd 64bb 9b10 85bb
00000070: ea12 f13b 9a5c 90bb 4e5b 4c3b 6f60 32bb
00000080: 3be1 e1bb 65b3 3abb d5db 213b ceea c83a
00000090: 87c2 913a 68b0 3b3c d963 e63b 43e6 e73b
000000a0: 7869 06bc b20f 973b b769 29ba 672d 3f3b
000000b0: 09fa af3a 7351 95ba 610a 4a3b 2cac 1ebb
000000c0: f513 42bb 22ca 36bb 9de3 833b 4b12 82bb
000000d0: d95c 09ba 5216 0d3b 8561 d33a d94a 19bb
000000e0: b2ed 0e3b 790b 2cbb 9c95 afb9 33f9 11bc
000000f0: 60ce 0abb 2968 e0ba 272e 8c3b 2723 ecb9
-0.013540537 -0.0014904062 0.0034905435 -0.00019731146 -0.00028875005 0.0019676944 -0.0036407288 -0.0038921076
-0.0023086653 -8.872357e-05 0.00032133632 -0.0022706394 -0.0020851803 0.0073605273 -0.0016783972 -0.0075863427
0.0028632062 -0.0012621565 -0.007670854 -0.0054703346 0.0029076713 -0.00041311746 -0.00028229132 -0.0022688478
-0.007902752 0.0051137367 -0.003494123 -0.0040608174 0.007356991 -0.00440557 0.0031182352 -0.0027218123
-0.0068933046 -0.0028488275 0.002469768 0.0015328766 0.0011120596 0.011455633 0.0070309457 0.00707701
-0.008203857 0.0046100253 -0.0006462591 0.002917135 0.0013425957 -0.0011392072 0.003082894 -0.002421151
-0.0029613946 -0.0027891477 0.0040249364 -0.003969466 -0.00052399706 0.0021528197 0.0016127086 -0.002339056
0.0021809158 -0.0026251955 -0.0003349007 -0.008909511 -0.0021180138 -0.0017120886 0.0042779627 -0.00045039618

mlp_extractor.policy_net.2.weight f4 [64, 64]
00000000: 67c8 243e c7d3 2dbd cd88 f33d 9637 66bd
00000010: c87f 3b3d a918 95be 2887 42be 64d3 d93e
00000020: b78b b4be 3431 41be d6a0 13bd 9397 903e
00000030: 0cb0 fc3d 763b 5b3e bd71 cb3d be11 09be
00000040: fcf7 f9bd 682a 433e e693 e73c 8f05 08be
00000050: 51e5 8cbe 6d85 ab3e 47fc 50be 0593 873e
00000060: d799 86bd 198e 3dbe 4a6b 0b3e 1fec 743e
00000070: eb8a 6d3c 5848 143d 36dc 0a3c f0d0 4b3e
00000080: 7c6b a43d acc9 74be a431 d63c e36a 1abe
00000090: 2da7 d7bd 4afc 4cbe e9f9 103d 4d32 3a3d
000000a0: 83cb 4b3e c926 7fbe 7fc6 b3bc 8806 a23e
000000b0: 0072 b6bc 8ff5 b73c 47f9 4b3d 74ab a2bc
000000c0: 2e83 923d fcc4 7cbe b11a c3bd 04cb c4bd
000000d0: 0df4 1b3e 7bd1 3dbd dbfb 7b3d 96d5 b7bd
000000e0: 85fd 8fbe 5f13 533d d88e 94be a73e cf3b
000000f0: 65f3 cebe 8db8 bfbd 8dcc 69bd 9c66 a83e
00000100: 4066 b03e 3287 95ba 4e30 b7be a45f 9cbc
00000110: 51e8 813c fae2 733e 094b aabe 1c46 27be
00000120: cdd6 45be ff35 45be 7834 a13d 4161 8fbe
00000130: 1684 23be 55c2 23be 7606 06be 4274 8ebe
00000140: d838 53bc 74c9 a7be 6ce1 0cbe 24f6 05be
00000150: efbe 623e 2d00 673e 073b 66be e796 9dbd
00000160: 240c d83d b714 49bd 0f95 49bd e028 6bbe
00000170: 99f0 a53d a35d cfbd 5fdd 6f3d 7d97 273d
00000180: eda4 81be 25c8 acbd 5590 713e 3b9d 33bd
00000190: c611 9c3d 5752 16be a7e7 51be cbb6 253e
000001a0: fa14 94be b1c0 78be 44e5 42bc cdbc 333e
000001b0: 12cc c2bd 74b6 c23e f4a9 dc3d a84f 0dbe
000001c0: 82ea 2b3d fcb9 fd3c 8fb0 3bbe ed78 4abe
000001d0: a4ff 153d 4848 9abc 914e b5bd 6b57 14be
000001e0: 8ee5 8abe 94b2 32be bcb6 b53d 65d8 03be
000001f0: 27db e73d 94ac 5abd 0aab 6b3e 3e57 7fbe
00000200: e401 92be 9a43 c53d e681 c63d 9041 f2bd
00000210: 274a 4a3e cbef 463e f3ce db3d 69ab 95bc
00000220: 642e 34be 666d 003e 8255 f33d 9d5e 083e
00000230: 5fcd 14be 7ef0 c8bd b349 7cbc c296 c73d
00000240: 6b46 613e c469 c6be d8cd 59bb c63b 85bb
00000250: 3d18 833e afe3 bb3d 4b92 ef3e a507 4ebd
00000260: 266f 863d 3e85 62bd 4213 5e3e 31d9 9d3e
00000270: d35e de3d c4d9 51bd 8a4d 2d3e 6144 8a3c
00000280: 87a6 0abf ed45 82bd f8a4 2a3c 6275 51be
00000290: 2689 0abd 80a2 43be 8c17 723e b287 1f3e
000002a0: f271 6bbe 15c4 0c3e 43d2 34bd 3ec0 0c3e
000002b0: f0dc 5bbd ef12 9cbe fb4b 113e 2710 9ebd
000002c0: b592 903e 4a2b 293e 1823 22be 871c 39bc
000002d0: b1b4 333d dec0 6abe 77ac 133d 904a 47bd
000002e0: bbe0 4fbc 3fc2 fe3d 3b8d 9cbd 1067 8c3d
000002f0: 8378 5fbe 9d8e 853e 9493 973c 53c8 6b3e
00000300: 5da5 cd3c e0ac 3bbe f7fb e63d 61a0 cc3c
00000310: 95a0 07be 95fa 963e e2fc 4dbc 5815 863e
00000320: b2e7 f2bd b50f 76be 7bf6 3d3d 5a46 94be
00000330: 1f89 ad3e 8649 6d3e a455 08be 7678 07bd
00000340: 169d 623d bbf5 a63e 58c8 20be a0ab 5fbe
00000350: b3a9 263e 4719 88be ad0f f13d 5545 ef3d
00000360: 81f4 9bbd fb86 dbbe a548 42be d81b 3fbe
00000370: 506b c43d ccd3 56bc 3c14 bd3d 7178 92bd
00000380: 8f15 b0bd ce97 11be 4c39 683e 777b 97be
00000390: fabe 383e f66b 953e 1d03 e93d 73be 70bd
000003a0: a642 abbd a5ca 13bd f75a a8bd 98a9 b73c
000003b0: bacf 13bd af71 ec3d 4064 ab3d 7212 d63b
000003c0: 975d 8ebc e1f4 473d a669 863e 0419 a23d
000003d0: bafb 4e3e bcb2 00bf 6512 c73d 3699 f2bd
000003e0: 2c2d 603e 2316 773e d549 e5bd 9adb 433c
000003f0: b8e5 f4bb 88af 193e ed81 21bd 1cd6 edbd
0.16092072 -0.042438295 0.11891327 -0.056205355 0.04577616 -0.29120377 -0.1899687 0.4254409
-0.35262844 -0.18866426 -0.036042057 0.28240642 0.12338266 0.21409401 0.09933803 -0.13385674
-0.122055024 0.19059145 0.028268766 -0.1328337 -0.27518705 0.33500233 -0.20408736 0.26479355
-0.06572311 -0.18511237 0.13615146 0.23918198 0.014498453 0.036201805 0.008475354 0.19903922
0.080283135 -0.23905057 0.026146717 -0.15079837 -0.10529933 -0.20018116 0.035394583 0.045458127
0.19901852 -0.24917139 -0.021945236 0.31645608 -0.022271156 0.022455959 0.049798276 -0.019857146
0.07153927 -0.24684519 -0.09526575 -0.09609035 0.15229817 -0.046342354 0.061519485 -0.08976285
-0.28123108 0.051532146 -0.2901523 0.0063246074 -0.4042007 -0.09361372 -0.05707984 0.32890785
0.3445301 -0.0011408089 -0.3577904 -0.019088574 0.015857847 0.23817053 -0.33260372 -0.16335338
-0.19320221 -0.19258879 0.07871336 -0.28003886 -0.15968356 -0.159921 -0.13088402 -0.27823073
-0.012891971 -0.32770884 -0.13757867 -0.13082176 0.22143148 0.22558661 -0.22483455 -0.07694798
0.10549191 -0.04909202 -0.04921442 -0.22964811 0.08102531 -0.10125282 0.058560725 0.040915955
-0.2532114 -0.08436612 0.23590215 -0.04385112 0.076205775 -0.14679848 -0.20498525 0.16183011
-0.28922254 -0.24292256 -0.0118954815 0.1755249 -0.095115796 0.38029826 0.107746035 -0.13799918
0.04197169 0.030972473 -0.1832907 -0.19772692 0.03662075 -0.018833295 -0.08852876 -0.14486472
-0.2712826 -0.17450935 0.088727444 -0.12875517 0.11321097 -0.05338724 0.23014465 -0.24935624
-0.28517067 0.096320346 0.09692745 -0.11828911 0.1975485 0.19427411 0.10732832 -0.018270211
-0.17595822 0.12541732 0.11881544 0.13317342 -0.14531468 -0.09811495 -0.015398431 0.09745552
0.21999519 -0.38752568 -0.0033234265 -0.0040659634 0.2560443 0.091742866 0.467913 -0.05030026
0.06564169 -0.05530285 0.21687034 0.30829766 0.1085793 -0.051233068 0.1692411 0.016878309
-0.5416035 -0.063609935 0.010415308 -0.20454934 -0.0338222 -0.19104958 0.23641795 0.15579107
-0.22992685 0.13746674 -0.044145834 0.1374521 -0.0536775 -0.30483195 0.1418914 -0.077179246
0.2823693 0.1652042 -0.158337 -0.011298305 0.043873493 -0.22925135 0.036053147 -0.048655093
-0.012687857 0.12439393 -0.07644125 0.06855595 -0.21823315 0.26085368 0.018502988 0.23025636
0.025103265 -0.18327665 0.11278527 0.024978818 -0.13244851 0.29488054 -0.012572499 0.2618816
-0.118605986 -0.2402943 0.04637764 -0.28959924 0.33893678 0.23172578 -0.1331392 -0.033073865
0.05532559 0.32609352 -0.15701425 -0.21842813 0.16275673 -0.26581785 0.11770568 0.11683146
-0.07614995 -0.4287642 -0.18973024 -0.18662965 0.09590781 -0.01311202 0.09232375 -0.071518786
-0.08597862 -0.14218065 0.22678107 -0.29586384 0.18041602 0.2918393 0.11377547 -0.058775377
-0.083623216 -0.03608193 -0.08220475 0.022419736 -0.036086775 0.11545121 0.083687305 0.0065329606
-0.017378611 0.04881752 0.26252478 0.079149276 0.20213214 -0.50272727 0.09720305 -0.11845629
0.21892232 0.24129538 -0.11195723 0.011954213 -0.0074736737 0.15008366 -0.039430548 -0.11613104

mlp_extractor.policy_net.2.bias f4 [64]
00000000: 4c61 d8bd d531 d5bc fdda b63c d32f a13c
00000010: 2a62 3fbd 0788 5e3c 2165 6fbd a0b4 013b
00000020: cac5 d33c a9dd 19bd 0e51 353d da8c 89bb
00000030: aa3c ae3c d9ea 50b9 0382 e7bc 1f6d d1bd
00000040: 82f9 44bb bf89 74bd 89fe 6dbc 857a 623c
00000050: 11f5 4ebd 6772 423c 785b 88bc 7d8f 8d3c
00000060: f4c2 b93b 4b2e 98bc 7361 0b3d a75e 963d
00000070: c7e7 b83c 4ea8 163b 0648 afbc 2edf cc3c
00000080: 28ec 9f3d 6b73 88bd ba05 3dbd ef82 703c
00000090: a4e7 3cbd 903a e63c dd7c 7b3d 7846 05bd
000000a0: 076b 61bd a8d9 72bd 289d c6bc 6880 9c3c
000000b0: a5e5 103c e6d1 183d 6767 16bc 3288 a0bc
000000c0: 71ea e5bc cc16 b03c f2ef 7cbd 4bb5 03bd
000000d0: f1ef e0bc 87cf 08bd a4df a6bd c999 0fba
000000e0: 0970 7c3d af54 2abd 654f 8ebc 86b8 8cbc
000000f0: 452d d1bc 5a07 c4bc 47ca c4bb fe7a 763d
-0.10565433 -0.026024738 0.022321219 0.019676125 -0.046724476 0.013582236 -0.058446053 0.0019791499
0.02585115 -0.037564907 0.044266753 -0.004197699 0.021269161 -0.00019923913 -0.028260237 -0.10225891
-0.0030055945 -0.059701677 -0.014526018 0.013823156 -0.050526682 0.011868096 -0.016645178 0.017280335
0.005668992 -0.018576762 0.03402848 0.07342272 0.022571458 0.00229885 -0.021396648 0.025008764
0.07808715 -0.06662639 -0.04614804 0.0146796545 -0.046119347 0.028104097 0.061398376 -0.032537907
-0.05503371 -0.059289604 -0.02424486 0.019104198 0.008843814 0.03730955 -0.0091799265 -0.019596193
-0.028065892 0.021495245 -0.061752267 -0.032155316 -0.027458163 -0.03340104 -0.08148125 -0.0005477933
0.061630283 -0.041584667 -0.017371843 -0.017177831 -0.025534282 -0.023929287 -0.0060055587 0.06017589

mlp_extractor.value_net.0.weight f4 [64, 376]
00000000: e17a dabd 38e9 6cbe 6e5a 01bb 623c 063d
00000010: 14a9 673b 8ce3 ff3d a094 6dbe 5aff 3b3c
00000020: 7484 4ebd 9770 5fbd 2540 c3bc 5ac3 f6bd
00000030: f589 733c 90f0 dbbd 2f5b f8bd 7d3a 62be
00000040: b452 3a3c 5c76 f13c 85c5 5cbe ec25 ebbd
00000050: e6a1 3fbe f6cf 71be 2e2f 54bf 0ceb 493e
00000060: e254 c8be 3a74 7abc 5566 a4be 20e3 87bd
00000070: b6eb d6bd b5ff f9bc 3061 50bc 14c1 17be
00000080: 93e8 4abd a2df 5b3d ddce 15be 5668 a13c
00000090: 4a71 6c3e 2243 3dbd 6b08 67bb f7a8 d6bd
000000a0: 0a4d d63d 65ef 4bbb 7e4a 8dbd 15d0 7dbd
000000b0: 6172 42bd 4dad 14be 0bbf bc3d efd3 123d
000000c0: a82e 95bc c33d 16bc ea24 f8bc 893a 65bc
000000d0: cd3b 9d3d 5c9a df3d a811 09bd 8472 79be
000000e0: 012a 3abe 5722 403f 3a00 633e 32b4 b43e
000000f0: 94ac acbd 1354 d4be dc78 e13d 52f0 71be
00000100: 0cc3 343d 7df7 cbbd 31b2 6e3c d027 503e
00000110: abc1 3dbd 4995 643e 15c9 803c 6050 a8be
00000120: 2291 ca3d 2cd4 6bbe 9522 033d 898c 2a3e
00000130: d01f a73c 69ea 193e a5b1 55bd 3b77 b53d
00000140: fd26 0fbd f7af f6bd b242 ed3d 4e52 93be
00000150: cb63 18bd 4dc8 41be 30dc 373c 5a82 3a3e
00000160: babc 803d ad45 793e b0a4 133e 0dd6 5f3e
00000170: 2893 e13c b295 3d3e 8ab6 98bb f772 9bbe
00000180: ee90 adbe a7bf e03e 83cf e13d bdb5 c13e
00000190: f23e 1a3d a872 ef3e 7e69 28be ab78 a73e
000001a0: 47fb a93c 6f88 4dbe 2552 a6be dcea d73e
000001b0: db08 c4bd 2f07 b83e 180a 16bb 30a8 c63e
000001c0: e83e eabd 7308 863e 797e 063d a3b0 8cbd
000001d0: ecf3 1b3c 9d7a ad3d 218e 4ebc cfd0 8c3e
000001e0: b0ab 0dbe a7e7 913e 3473 8dbe 6aa5 e53d
000001f0: c2e4 98bd 5910 3dbe 83b7 79be 2011 173f
00000200: fd8a 7ebe 8ba4 c63e 2cfb a6be b3fd 153f
00000210: 0a6e 24be 6db4 e13d a39e b93c 04a7 70be
00000220: c725 92be 585a a43e 2bba 82bd 2a5e d43e
00000230: dc2f 5dbe 1ef9 003f e742 b0be ab8d 963e
00000240: a19f 05be ca61 74be 2108 65be 5083 2e3d
00000250: 6f44 17be 2b27 4f3e 3684 1cbe e235 c9be
00000260: 303f 953e 5aa2 abbd 0aa5 62bd b5a9 80be
00000270: 5f70 d1be 7a4d b2bd 1965 8dbe 3245 313e
00000280: 5b2f abbc 24b6 b5be f087 803e f532 a5be
00000290: d2f4 4abd 0ac9 23be 0994 77be d97d dcbc
000002a0: c49a 083e 490c 763e eaf5 e73d 1b30 a7be
000002b0: 484c 95bd 282c 52be fe3a 1abd 1bea 47be
000002c0: 7ae0 adbe 01f7 aebd a583 c53d 040d 8c3e
000002d0: 74b8 833e 2bc4 87be c0e4 4dbc aeb0 4bbe
000002e0: 3202 f9ba 72c6 783d c92b 2bbe fa42 763d
000002f0: b211 873d 7c6a 40bd eec3 92bd f1ad c7bd
00000300: 5f8e 47be 3455 82bd 529f 78be badf 103d
00000310: 7d18 81bd 04c8 c6bd fd6b 9bbe 0fc0 e73d
00000320: 2d9a 49be b309 4e3c c0dc e4bd 1466 3cbd
00000330: deb4 dcbd 78d8 a4bb 36b2 01be 6a75 5b3d
00000340: df26 37be 476e 85be d2fa d1bd 13cc 233e
00000350: ad07 0bbe 5815 043e fdfb 7dbe d9a6 07bd
00000360: 2131 5cbe e1c1 d23b 617c 93bc 9c2e 7c3d
00000370: 4135 b2bc 1dc6 bbbd 9c39 f0bd e06e 503d
00000380: bf04 85bd 0219 043e f703 b8bc 5afd 05be
00000390: e776 55be 50a1 0ebd eff9 38be 8471 0ebc
000003a0: 37a8 5cbe af2e 4bbe 3a9c d83c 3d37 e3bd
000003b0: dc52 0ebe 65e0 bab9 15b6 70be 2cc8 d8bc
000003c0: ced6 95bc ba71 37be f1d1 7cbe 37fe 26be
000003d0: e1e2 2dbe c6e9 1b3d 36dc 37be ac10 fb3c
000003e0: 0e92 69be ed8a f53d f8c3 afbd 047d 1ebd
000003f0: 5150 28be c7c5 c33d 78c2 43be 06c5 ab3d
-0.106679685 -0.23135841 -0.0019737738 0.03277243 0.003534858 0.12494573 -0.23201227 0.011474455
-0.050419286 -0.054550733 -0.023834297 -0.12048979 0.0148644345 -0.10739243 -0.12126767 -0.22092624
0.011372257 0.029475383 -0.21559723 -0.114818424 -0.18714103 -0.23614487 -0.8288449 0.1971857
-0.3912726 -0.0152865 -0.32109323 -0.066351175 -0.10494177 -0.030517438 -0.012718484 -0.14819747
-0.049538206 0.05368007 -0.14629693 0.019703072 0.23090091 -0.0462066 -0.003525282 -0.10481446
0.10463913 -0.0031118032 -0.06898974 -0.06196602 -0.04747236 -0.14519234 0.09216126 0.035846647
-0.018210724 -0.009169999 -0.03029104 -0.013991007 0.07677422 0.109181136 -0.033464104 -0.2436009
-0.18180086 0.750524 0.22168055 0.35293728 -0.08431354 -0.41470394 0.1100938 -0.23626831
0.044131324 -0.09959314 0.014568851 0.20327687 -0.046327274 0.22322573 0.015720883 -0.3287382
0.09890963 -0.23030156 0.032015402 0.16655172 0.020400912 0.15030827 -0.05217137 0.08860632
-0.03494929 -0.120452814 0.11584987 -0.2877373 -0.037204545 -0.18924065 0.01122193 0.18213788
0.06285997 0.24342985 0.14418292 0.21858998 0.02753599 0.18514135 -0.004660432 -0.3036115
-0.33899635 0.4389622 0.11025908 0.37833968 0.037657686 0.46767163 -0.16446492 0.3270925
0.020749701 -0.20071577 -0.32484546 0.4217137 -0.095720015 0.3594298 -0.00228942 0.38800192
-0.1143778 0.2617832 0.032835457 -0.06869628 0.009518605 0.08470652 -0.012607128 0.27503058
-0.13835025 0.2849705 -0.27626956 0.11213191 -0.07465507 -0.18463267 -0.2438641 0.59010506
-0.24857707 0.3879741 -0.32613504 0.5859024 -0.16057602 0.110207416 0.022658652 -0.23501211
-0.28544447 0.32100177 -0.06383165 0.4147809 -0.21600288 0.5038012 -0.34426042 0.2940496
-0.13049175 -0.23865429 -0.22366382 0.042605698 -0.14772199 0.20229785 -0.1528481 -0.39298922
0.2914977 -0.083805755 -0.055333175 -0.25129476 -0.40906045 -0.08706184 -0.27616194 0.17311552
-0.020896604 -0.35490525 0.25103712 -0.3226544 -0.049549885 -0.15994659 -0.24177565 -0.026915478
0.13340288 0.24028124 0.11326201 -0.3265389 -0.0728994 -0.20524657 -0.037653916 -0.19522898
-0.33960325 -0.08543206 0.0964425 0.2735368 0.25726664 -0.26516852 -0.012566745 -0.19891617
-0.0018997847 0.060736127 -0.16715921 0.060122468 0.06595172 -0.04697655 -0.07166277 -0.097499736
-0.19487904 -0.063639075 -0.24279526 0.035369612 -0.06303499 -0.09706119 -0.30355826 0.11315929
-0.1968772 0.012575555 -0.11174917 -0.045995787 -0.10776685 -0.005030688 -0.12665638 0.05357877
-0.17885922 -0.26060697 -0.10252918 0.15995817 -0.13577147 0.12898767 -0.24803157 -0.033118103
-0.21503116 0.0064318036 -0.018003644 0.061567888 -0.021753909 -0.091686465 -0.11729738 0.05088699
-0.06495046 0.12900165 -0.022462828 -0.13084927 -0.20846139 -0.03482181 -0.18064092 -0.008694056
-0.21548544 -0.19842027 0.026441682 -0.1109452 -0.13898796 -0.00035643872 -0.23506959 -0.026462637
-0.018290903 -0.17914477 -0.24689461 -0.16307913 -0.16981079 0.03806474 -0.17955098 0.030647598
-0.22809622 0.119893886 -0.085823 -0.038693443 -0.16436888 0.095592074 -0.19117153 0.083871886

mlp_extractor.value_net.0.bias f4 [64]
00000000: 800d 4bbc aa6c 98bd 018d 16bc 4d5f 99ba
00000010: e9b9 acbd aff3 90bd 0016 123b fe2a f2bd
00000020: e86d dc3d 1c42 a73d 7b4e 1f3d b060 b23c
00000030: 533d 23bd 90a2 e33b b304 1ebe d279 103d
00000040: 437c 9f3d 34a3 03bc 2430 823c a015 fabd
00000050: aedd f6bc ff9e 3cbd 1c82 84bd f386 173e
00000060: afa4 21bd 75f8 c4bc 6303 9cbd d026 a2bd
00000070: 89ef 21bd 8738 0b3e cbfe a33d 0aed d03d
00000080: 900f c53c acb4 20be a977 c13d 1008 bfbd
00000090: ebc2 ba3c fad8 653d 4f15 ad3c b53e 10bb
000000a0: 4e39 ddbd 5f86 c6bc 9823 ed3d a6a4 113e
000000b0: d0e6 31be 0ea8 8fbd fc54 c93d 86b0 a6bb
000000c0: 1ee6 743d 0bf2 053e 4bce 7b3c 3ce4 673d
000000d0: 4b34 07be ff93 153e 7509 c2bd e0fc 683d
000000e0: 55ab bc3d 5e25 c0bd e02f ad3b 074d ff3d
000000f0: fe26 583d 4c61 a23d 2398 753d 1793 a5bd
-0.012393355 -0.07442601 -0.009188891 -0.0011701375 -0.08433897 -0.07077729 0.0022290945 -0.11824606
0.107631505 0.08166906 0.038893204 0.02177462 -0.039853405 0.006946869 -0.1543148 0.035272427
0.07787373 -0.008034516 0.015892096 -0.12211156 -0.030135002 -0.046050068 -0.06470129 0.14797573
-0.039463695 -0.024044255 -0.076178335 -0.07917559 -0.03953508 0.13595782 0.08007582 0.102014616
0.024055272 -0.15693921 0.094466515 -0.0932771 0.022798022 0.056115128 0.021128325 -0.0022010033
-0.108019456 -0.024233995 0.115790546 0.14222965 -0.17373204 -0.07014476 0.098306626 -0.005086961
0.05978977 0.13080613 0.015369008 0.056614146 -0.13203542 0.14607237 -0.0947446 0.056881785
0.092123665 -0.09382127 0.005285248 0.12465864 0.05277156 0.07928714 0.059959542 -0.08084696

mlp_extractor.value_net.2.weight f4 [64, 64]
00000000: 03b0 e0bd 8980 acbe 161a 933e 619f 873e
00000010: bc35 98bd 2271 573d 7220 1e3e 2a7b bfbe
00000020: 893b 363e d07e c73b a5e6 923d cf27 363e
00000030: 13dc d33c 40f7 a1bb 6a27 c5bc 4883 00be
00000040: 6080 ba3d 1ccf a33e 4e2c b7bd 7027 c53c
00000050: 1ec6 0e3c bbe2 4d3e 135a 6c3d ce98 ec3d
00000060: a729 47be 4a14 93bd a795 d7bc be04 93bf
00000070: f4d2 3f3d 2034 833f bc3c 8cbd b4ba c6bb
00000080: 105f 03bd c837 713e 87c5 d9be 4161 f1bd
00000090: 2f22 0a3e c3ec fcbd 2d47 db3c 7d4a cfbb
000000a0: e2c6 ad3e 0027 9f3e c519 0b3e bd03 d13e
000000b0: 5cd5 bdbe a3e4 903e 9802 303f fb5a 423d
000000c0: ce4f dfbd 9a40 333e 96a1 b83d aa70 ed3e
000000d0: d656 a93d 9609 1d3c 8d8e e5bd eda5 0b3f
000000e0: 5b21 2a3c b077 9e3e 3b7a 06be 860f 593d
000000f0: 7091 d73d 61dc 7fbe e998 0c3f 6689 37be
00000100: af32 80be 088b 833e b7fb 943d 173d 96be
00000110: 33e8 b7bd ef7a b4be ea0a 41be e627 9ebd
00000120: 5220 8abd 1347 6f3e 5bae 023e 07da 203d
00000130: d39f a1be 3e67 543e 8672 6fbe 3651 263e
00000140: 36f7 b8bd 83ee 763e 2567 c8be 09ea 13be
00000150: a6b1 353d 57ad a0be 3fb5 b7bb 1eea 78bd
00000160: da96 083e 7c08 15bd c837 47be ef3b e93e
00000170: f173 84bd cddc 05be b4e2 ba3d 2183 cebd
00000180: 4dfb 60be fba1 d8be 4b69 493c 1131 f83c
00000190: e5ea 00bc 5bdb 25bd 6556 4d3d 8d91 513a
000001a0: cacd 73bc 4f56 c93d 73f7 56be 779f 153f
000001b0: cdde dabd 17a6 d4bd 5a95 82be 432f 87bd
000001c0: d749 30bb 5b4d 6c3e 2ff3 60bc d894 2cbf
000001d0: 9afa c7bd b9b8 713d 07ae c03d a41e 58be
000001e0: 45c7 5ebd 9001 8ebe 7423 b7be c419 45be
000001f0: 5379 8c3d 8324 fa3e 5cca 89be 28f2 3bbe
00000200: ce64 34bd 0a8a 88bd 32a1 44be 2d43 603e
00000210: 7e7f bdbe 0493 8fbd 491e d23d 9a7b bdbe
00000220: fa11 86be 064f a53e 0088 32be e0d6 933e
00000230: e191 c8be 6c90 0d3e 6e1d c93d c354 42bc
00000240: cf7d 2bbf 0c15 1c3d a7d8 f53d 6f22 bdbd
00000250: c9ab 303e e508 0cbd ace5 0c3d ca13 ec3e
00000260: 8f43 ecbd 91e7 aabe 2ebd 9fbc bc0e ad3e
00000270: 66d4 e6bc 69b3 5dbd bf51 5ebd 6dbd 1c3d
00000280: b5db daba b2c6 0b3d 20d9 a63b 0a27 153d
00000290: ee05 55be fa5b 8a3b f316 5b3e d81d 58be
000002a0: 38ba 92be c7ba 93bd a8e2 a6bd cd78 a93d
000002b0: b00c 21be c48e 80be fe02 12be 6a5d 23be
000002c0: aa51 b33c 49b4 bd3e 04dc 423e b2bb 413e
000002d0: 23f3 5cbe 5187 f93d 9428 573d 1b70 97be
000002e0: 472a 58bd fc01 813e 7837 963e 61c3 3d3d
000002f0: a6b6 1f3e fdc6 753e 7940 3abf 8ae5 fabd
00000300: 2e35 1b3e 6f72 93bc dd03 603e 05d3 dc3e
00000310: b125 993e 5ddf ec3c bed3 873e aec3 373e
00000320: fb4b 74be 62b4 11be a9bd 103e e15b 15be
00000330: 17f2 0f3f 3f50 4dbd d9eb 5c3e 5ad7 bcbd
00000340: 4071 37be c354 1a3e e561 bcbd 845b d23e
00000350: 7693 e53d b48b 56bd 677b c43d c277 b13d
00000360: c251 ed3d b33b 723e 5ecd 073e 0ad3 cfbd
00000370: 3eba 0d3e 1a13 6d3d 8069 c53d 02de c1be
00000380: b23e 22be 7057 963d 03ba e83d 4e90 dd3e
00000390: 4ef7 a5be be99 8ebe 66f8 553e 7100 a13e
000003a0: 334f 893e dfff 9ebd da09 0cbe 9fa4 bdbd
000003b0: 02d4 a63d 6e2e dd3e 74f2 58bc 61bd 463e
000003c0: 6979 04bf 9bdd d7be eb91 633e 95fb 743e
000003d0: 94d6 833e c04a f5bd 4d1d 42be 9079 bf3d
000003e0: bfb0 3fbe 11f3 143e 7140 56be 2d58 17be
000003f0: 9e78 093d 8024 abbc 9b92 dab9 ffe8 2d3d
-0.109710716 -0.33691815 0.2873084 0.26488784 -0.07432124 0.052598126 0.15442064 -0.37398654
0.17796148 0.0060881153 0.07172898 0.17788623 0.025861776 -0.0049428046 -0.024066646 -0.1255008
0.09106517 0.3199395 -0.08943997 0.024066657 0.008714227 0.20106022 0.05770309 0.11552583
-0.19449483 -0.07181604 -0.026316477 -1.1485822 0.04683204 1.0250282 -0.06847522 -0.006064737
-0.03207308 0.23556435 -0.42533514 -0.11786128 0.13489603 -0.12349846 0.026767338 -0.0063260184
0.33940798 0.31084442 0.13584049 0.40823165 -0.37076843 0.28299436 0.6875396 0.047450047
-0.109038934 0.17505112 0.09015195 0.46375018 0.08268516 0.009584805 -0.1120883 0.5455006
0.010383929 0.3095069 -0.13132565 0.05299332 0.10525787 -0.24986412 0.5492082 -0.17923507
-0.2503867 0.2569201 0.07274573 -0.29343483 -0.08979835 -0.3525004 -0.1885182 -0.07722454
-0.06744446 0.23366956 0.12761824 0.039270427 -0.3156725 0.20742509 -0.23383531 0.16241917
-0.09031527 0.24114423 -0.39141193 -0.14444746 0.044358872 -0.31382248 -0.005606323 -0.060770147
0.13338795 -0.036385044 -0.19454873 0.45553538 -0.064674266 -0.1307251 0.091252714 -0.100836046
-0.21970864 -0.4231108 0.01229317 0.030296834 -0.007868503 -0.040492397 0.05013122 0.0007994406
-0.014880607 0.09830915 -0.20992832 0.5844645 -0.10687027 -0.103832416 -0.2550457 -0.06600811
-0.002689948 0.23076384 -0.0137298545 -0.6741462 -0.09764595 0.059014056 0.09408193 -0.21105438
-0.054389257 -0.27735567 -0.35769236 -0.1924811 0.06859078 0.4885598 -0.269122 -0.18354094
-0.044041447 -0.06666954 -0.19202116 0.21900626 -0.3701133 -0.07010463 0.10259683 -0.37008363
-0.2618559 0.32286853 -0.17434692 0.28874874 -0.39173797 0.13824624 0.098200664 -0.011861029
-0.66988844 0.03810601 0.12004214 -0.09235083 0.17253031 -0.03418817 0.03439872 0.46108848
-0.11536323 -0.33379796 -0.019499388 0.33800304 -0.028177451 -0.054126177 -0.054277178 0.038266588
-0.0016697558 0.034125037 0.0050918013 0.036414184 -0.20803043 0.0042223902 0.21395473 -0.21105134
-0.286577 -0.07213359 -0.081487 0.08274994 -0.15727496 -0.25108922 -0.14258954 -0.15953603
0.021889526 0.3705161 0.19029242 0.18919256 -0.21577124 0.12184013 0.052528933 -0.29577717
-0.052774694 0.25196826 0.29339194 0.046328906 0.15597019 0.2400169 -0.7275463 -0.12250812
0.15157005 -0.017998902 0.21876474 0.43129745 0.2991157 0.028915102 0.26528734 0.1794574
-0.23857109 -0.14228967 0.1413485 -0.1458583 0.56228775 -0.050125357 0.21574344 -0.092207626
-0.17914295 0.15071397 -0.091983594 0.41085446 0.112097666 -0.052379325 0.0959385 0.0866542
0.1158786 0.23655586 0.13261935 -0.101476744 0.13840577 0.057879545 0.09639263 -0.3786469
-0.15844229 0.07340896 0.11363604 0.43274158 -0.3241524 -0.2785167 0.20895538 0.3144565
0.26818237 -0.07763647 -0.13675633 -0.092599146 0.08145906 0.43199486 -0.013241399 0.1940818
-0.5174776 -0.4216126 0.22223632 0.23924096 0.25749648 -0.11977148 -0.1895649 0.09349358
-0.18719767 0.14545847 -0.2092302 -0.1477973 0.033562295 -0.020891428 -0.0004168943 0.04245853

mlp_extractor.value_net.2.bias f4 [64]
00000000: 68f8 493e ba4b 083e 76d2 1a3e dcc0 6ebe
00000010: 73d9 bb3e 83bc a33c 84b3 a53e 5b55 f8bd
00000020: 7463 9fbe e0e4 1ebe 8d45 d0bd 5208 4b3e
00000030: 9917 a3be 8418 833e 7203 893e be17 8abd
00000040: 4b17 28be 6c43 813e 9c76 bfbd 22b7 283e
00000050: 9144 1c3e c876 86be a15d 5d3e 6c3c 053e
00000060: 916c 8f3e 0bbe 833e a4c9 13bd 71d2 413e
00000070: 7113 87be 399b 893e 9c4d 9c3e c3e0 28be
00000080: 2e53 5bbd a621 4abe a029 833e 0eb7 6a3e
00000090: 32ad a4bd 5625 29bb 5ae9 c43d 98ec 723c
000000a0: df01 163b f074 633e 0e61 6a3e 1088 b63d
000000b0: 9513 0a3e 07f3 e6bd 26b8 64be 8bd8 4d3e
000000c0: a32c 033e 8560 943e 4f4c 0c3e e844 38be
000000d0: a4f8 ec3d 2179 6bbd b479 163e da19 94bd
000000e0: 7bea f8bd 1c12 463e 3000 e63d b6c3 833e
000000f0: ac28 ff3c 0e67 33be e9af e83d 00c4 423d
0.19723666 0.13310137 0.15119347 -0.23315758 0.36689338 0.01998735 0.32363522 -0.12125655
-0.31130564 -0.15516996 -0.10169516 0.19827393 -0.3185394 0.2560464 0.2676044 -0.0674281
-0.16415136 0.2524675 -0.09348795 0.1647611 0.15260531 -0.26262498 0.21617748 0.1301133
0.28012517 0.2573093 -0.03608097 0.18927933 -0.2638202 0.26876238 0.3052796 -0.1649199
-0.053546123 -0.19739398 0.25617695 0.22921392 -0.08040847 -0.0025809607 0.09614821 0.014826916
0.00228893 0.22212577 0.22888586 0.089126706 0.13484032 -0.112768225 -0.22335872 0.20102136
0.12809996 0.2897989 0.13700984 -0.17995036 0.11570862 -0.057488564 0.14694864 -0.07231493
-0.121540986 0.19342846 0.112305045 0.25735253 0.031147324 -0.17519781 0.11361677 0.0475502

action_net.weight f4 [17, 64]
00000000: 7a3b e5bd b3c7 23bc ba55 31bd 0071 ab3c
00000010: 5c7c a0bb c5ed 1bba 4937 b33c 2126 74bd
00000020: 969c d2bc ac9c 073c 1f3b 9b3d 97d2 2e3d
00000030: 58bc 88bc d4da 1e3d 1100 5fbd d6b3 17bc
00000040: d0d9 813c c873 41bc 2106 ea3c dec6 ccbd
00000050: 1082 4d3d eb4d 363c 3644 b83c cb08 00bc
00000060: 352a 25bd 4136 133c f196 c2b9 66b0 9bbd
00000070: e2ed 9b3d e9e4 fe3b 3752 493d 7e99 7dbd
00000080: fc89 babc ac1d 89bd d13b a2bc 50db b33d
00000090: 7f64 933b a1ae 93bc 4dcc 993d 88e1 2b3d
000000a0: 9be9 5b3d 2fbb a33c 187a 853c dab7 843d
000000b0: 8783 a7bc d49c 343d 5fdc 25bc 2409 a1bd
000000c0: 61ee 2e3d 1785 403d d6cf 4b3c d940 4ebd
000000d0: 5b52 8c3c 6efa 8a3c 4fe5 653c 6037 0fbd
000000e0: 13f9 df3c 5a9a 893d b2f5 ffbc 7cd5 d63c
000000f0: 0da9 d83c dce7 27bd f93f 5dbc c464 25bd
00000100: 70e6 5abc 18fc bfbc 8c7c 6cbc 4660 ba3b
00000110: 6fed 8c3c f795 2d3d b82a 31bb 3fff 49bd
00000120: bf3d 83bd 1334 423d b8d2 b5bd f1c9 613d
00000130: a396 013d cbf6 0bbd ac51 423b 73e5 3a3d
00000140: 259a ecbc 826f a2bb bb29 063d 148c 01bd
00000150: 8111 743c 4f64 6dbd 8ecf 0e3d 9e83 66bd
00000160: 7e28 c13c ad87 86bb 1003 b3bc 08cd ae3c
00000170: 50da d5bc 4adb 003b da84 843d 38bd c0bb
00000180: 70dc 813d aa44 a0bd 3db1 4abc 51df c3bc
00000190: 90ae 95bc fb16 61bd 645d 2cbc 415d 9d3b
000001a0: b5a7 93bc ef42 6d3d 3e22 1f3d 3949 07bc
000001b0: 2456 0abc cbda 5d3d 94b7 5ebc 56c3 75bd
000001c0: bfaf 7ebd 2045 e5bc 415b fa3c a638 193d
000001d0: f93d 0e3d 18ad 0bbd e504 913d be77 0a3d
000001e0: d1ea 8b3d 2403 f93b d652 2dbc 7919 063d
000001f0: 5560 2ebc 62bc 3d3d 39a3 bbbb 7901 cc3c
00000200: 5c2b c53b 10e1 993c 56bb adbc 8d05 2a3d
00000210: 2095 c6ba c64d 613c 8eaa 0f3c 5585 b83c
00000220: 3fa9 803d c06f bc39 fd2b 123d 9da5 81bd
00000230: b238 ee3c 8ac8 a03d a016 3dbc 5bbe fabc
00000240: f708 8f3c 5593 cf3c 28e8 59bb 5959 3cbd
00000250: 7e04 c83d 67ba 4e3d d9cc f33a aec0 433c
00000260: 89ad d93c 428c cf3d 98c3 2039 0ece 42ba
00000270: be0b ca3c c280 043d 2b3d 873c cf22 d0bc
00000280: 54d8 f9bc a3fc ce3c aa90 c83b d978 da3b
00000290: 9bf3 06bd b10e 4fbc 2dac 71bc e8f8 6cbc
000002a0: a80a 9c3d 558b 17bd 2000 7b3c c536 f53c
000002b0: bf65 a03c 42b4 9abc 28c9 9dbc d55e 8bbc
000002c0: 3290 1dbd bc4f cb3c b30b 8d3c bff1 233c
000002d0: 77fb f8bc 98e2 b6bd 9b60 90bd 8418 493d
000002e0: 058a 8ebc 39cd 353b 96cf 513d f8c1 41bb
000002f0: ea47 4bbd 392a 443d 0795 75bd c5b6 403b
00000300: 2542 893d ad94 da3c 6930 673d 7c09 b23c
00000310: 8712 103c 32a0 acbc 7e85 c8bb c56e 71bd
00000320: 6a2f 1d3d fd26 f23c 0728 0a3c 794d 133d
00000330: aa07 303c 9270 b4bc 69b5 483d 1dff 86bd
00000340: cb4d 7f3c c649 18bd e6eb d13a b642 3fbd
00000350: 3d62 f1bc 8d50 ed3c 6c6f 45bd b23c 183d
00000360: 82ad 18bd be1c 52bc 2289 d43c dd93 42bd
00000370: 4391 763d 3a38 90bd f4f4 68bc d132 283d
00000380: 9ee8 cfbd c296 48bd 674f 85bd 193e efbc
00000390: 24f9 0bbd c4e2 c83c 6505 863b 6ff1 f8bc
000003a0: f271 c3bc d3b4 a33c 464a cdbd 5a29 6f3d
000003b0: fba3 c93c 5e2d 203d 3a2c a4bc 3975 01bd
000003c0: 3e52 d9bc df75 b5bd e17a 713c d5e7 c43c
000003d0: 843f b7bd d055 78bd 807a 8abd d3d5 553c
000003e0: f667 5fb9 b930 853c 375a d63c b457 833c
000003f0: f471 b33c 8f49 8a3d 4fe4 773d be59 2ebc
-0.11192985 -0.0099963425 -0.043294646 0.020927906 -0.0048976373 -0.0005948211 0.021876948 -0.059606675
-0.025709432 0.0082771 0.07579636 0.042681303 -0.016691372 0.03878291 -0.054443423 -0.009259185
0.015850931 -0.01180739 0.028567376 -0.099988684 0.050172865 0.0111269755 0.022493463 -0.007814596
-0.040323455 0.008985103 -0.00037115024 -0.07602005 0.07613732 0.007778753 0.04915067 -0.06191396
-0.022770874 -0.066951126 -0.019803913 0.08782065 0.004498064 -0.018027605 0.075096704 0.04196313
0.05368958 0.019986717 0.01629357 0.064803794 -0.02044846 0.044094875 -0.010123341 -0.078630716
0.042707805 0.047001924 0.012439689 -0.050354812 0.017129114 0.016965117 0.014031722 -0.03496492
0.027340448 0.06718893 -0.031245086 0.026224844 0.026447797 -0.040992603 -0.013504022 -0.0403793
-0.013360605 -0.023435637 -0.014433991 0.005687746 0.01720306 0.042379346 -0.002703352 -0.049315687
-0.064082615 0.047412943 -0.08878082 0.055124227 0.0316378 -0.034170907 0.002965073 0.045628976
-0.028882096 -0.0049571404 0.03275464 -0.03162773 0.014896751 -0.05795699 0.03486591 -0.056277864
0.023578878 -0.0041055293 -0.021852046 0.021338 -0.026105076 0.0019661956 0.06470652 -0.0058819316
0.06340873 -0.07825597 -0.012371358 -0.023910196 -0.018271714 -0.054953557 -0.010520313 0.0048023765
-0.018024305 0.05792516 0.038851015 -0.008257204 -0.008443389 0.054163735 -0.013593573 -0.06000074
-0.062179323 -0.027987063 0.030561091 0.03740754 0.03472707 -0.034100622 0.07081012 0.0338056
0.06831897 0.0075992513 -0.010578832 0.032739136 -0.0106430845 0.046322234 -0.0057262448 0.024903046
0.0060171317 0.018784076 -0.021207493 0.0415092 -0.0015150644 0.013751453 0.008768691 0.022524515
0.06282281 0.00035941415 0.03568648 -0.06330416 0.029079769 0.0785075 -0.011541039 -0.030608347
0.01746033 0.025338808 -0.0033249948 -0.045983646 0.09766482 0.050470736 0.0018600478 0.011947794
0.026572006 0.10134174 0.00015331653 -0.0007431217 0.024663802 0.032349356 0.01650866 -0.025407223
-0.030498661 0.025266951 0.006120761 0.006667238 -0.032947164 -0.01263778 -0.014750523 -0.014463641
0.0761922 -0.03699811 0.015319854 0.029933343 0.019579766 -0.018884782 -0.019260958 -0.017012993
-0.038467593 0.024818294 0.017217493 0.010006367 -0.030393345 -0.08929938 -0.07049676 0.049095646
-0.017399797 0.002774073 0.05122336 -0.0029565077 -0.04962913 0.04789183 -0.059956577 0.0029405814
0.06702069 0.026682222 0.056442652 0.021733038 0.00879348 -0.02107248 -0.006119429 -0.05894353
0.038375296 0.029559607 0.008432395 0.035962556 0.010744015 -0.022026334 0.04900113 -0.06591628
0.015582512 -0.03717973 0.0016015738 -0.04669448 -0.029465789 0.028969074 -0.048201963 0.03716726
-0.037274845 -0.0128242355 0.025944296 -0.047504295 0.060197126 -0.07041974 -0.014218558 0.041064087
-0.1015179 -0.0489719 -0.065092854 -0.029204415 -0.034173146 0.024522193 0.0040899985 -0.030388562
-0.023858044 0.019983685 -0.10023932 0.058389045 0.024614325 0.039105766 -0.02004062 -0.031605933
-0.026528474 -0.08860373 0.014738769 0.024036327 -0.089476615 -0.060628712 -0.06761646 0.013051468
-0.00021305666 0.016258584 0.026166065 0.016033031 0.021904923 0.067523114 0.060520466 -0.010641513

action_net.bias f4 [17]
00000000: 3eb0 b33d 0b01 7bbc cacb 3d3a 70b0 0c3d
00000010: a469 743d 4d8a 673d b899 b13e 33fb 223d
00000020: 592f 5a3c 5626 023e 0e06 cf3e 9f33 b2bc
00000030: 9910 aebc af5f d33c 2410 da3c 0ce3 92bc
00000040: 33c9 693d
0.0877385 -0.015320073 0.0007240145 0.03434795 0.05967106 0.05652838 0.3468759 0.039790343
0.013316953 0.12709936 0.40434307 -0.02175313 -0.021248149 0.025802461 0.026619025 -0.01793053
0.057076644

value_net.weight f4 [1, 64]
00000000: 270a 5ac0 ac25 6a40 7610 5c40 001f 6ac0
00000010: a0ec 5b40 ea32 6540 b9c4 5b40 b245 5fc0
00000020: 5b1c 5fc0 d0ee 5e40 1d43 6a40 450b 6040
00000030: cb92 5c40 fabb 5d40 8b00 60c0 2692 61c0
00000040: af0d 6140 40f4 6240 d645 68c0 5a20 69c0
00000050: eb9b 63c0 a780 6440 121d 5e40 e071 5b40
00000060: 872f 67c0 3811 5d40 00d0 5fc0 b47a 5d40
00000070: 20ab 6ac0 1072 5c40 8ed8 5fc0 b468 61c0
00000080: efaa 6140 12e8 5d40 7e5b 6d40 77c1 5d40
00000090: 72f4 6ac0 2f4f 6640 5882 5ac0 c052 61c0
000000a0: 859d 5dc0 7189 6840 4f6d 6340 b219 6540
000000b0: 97da 5d40 d3d1 6640 2585 6040 80c4 60c0
000000c0: 7133 6440 0b85 5ec0 c8b8 63c0 6c10 62c0
000000d0: a1a1 5dc0 7f7e 6240 104d 6940 07bf 5b40
000000e0: a964 5f40 b495 5fc0 e420 5fc0 9047 65c0
000000f0: bf8a 68c0 a1bc 5cc0 2816 65c0 287f 6340
-3.4068696 3.6585493 3.4385047 -3.658142 3.4363174 3.5812325 3.433882 -3.4886289
-3.4861057 3.483326 3.6603463 3.5006878 3.4464595 3.4645982 -3.5000331 -3.5245452
3.5164602 3.5461578 -3.6292624 -3.6425996 -3.5563915 3.5703523 3.4705243 3.4288254
-3.6122758 3.454176 -3.4970703 3.4606142 -3.6666946 3.4444618 -3.4975924 -3.5220156
3.526058 3.4672894 3.7087092 3.4649332 -3.6711698 3.598583 -3.4142056 -3.5206757
-3.4627392 3.6333888 3.5535467 3.5796933 3.4664667 3.6065567 3.5081265 -3.5119934
3.5656397 -3.4768703 -3.5581532 -3.5322523 -3.46299 3.5389707 3.6453285 3.4335344
3.4905188 -3.4935122 -3.4863825 -3.5824928 -3.6334684 -3.449013 -3.5794773 3.554636
